data.pth (torch, 9642 bytes, 6 tensors)

l1.weight f4 [8, 128]
000000 85 08 67 3d 13 d6 16 bd b7 15 01 be 79 15 52 be
       0.05640461 -0.03682525 -0.1260594 -0.20516004
000010 44 bf 55 3e eb 64 ed 3e a9 f5 0c bf c5 1d b6 bf
       0.20873743 0.46366057 -0.5506235 -1.4227835
000020 04 30 8f 3e 7e 61 59 be 3c 28 c2 be 8a ab 1c 3f
       0.2796632 -0.21228597 -0.3792132 0.6119925
000030 cb 1d 1b 3e 7f df d8 3d 6b 77 7b be a6 b6 ab be
       0.15148084 0.105895035 -0.24557273 -0.33537787
000040 3c 1e 19 bf 52 29 0d bf 14 53 d8 be c5 31 e5 be
       -0.5981176 -0.55141175 -0.42250884 -0.44764534
000050 f9 77 13 3f f3 ab 8b 3f 52 8a 5f 3e 5f 9a d8 3e
       0.5760494 1.091185 0.21830109 0.42305276
000060 3d 10 2d 3f 5a 87 a3 bf df 4c 15 bf 8f f1 2a 3f
       0.676029 -1.2775681 -0.5832042 0.6677484
000070 f9 a6 b8 3f 3f e9 13 be cc 11 cf 3d f6 a4 3c be
       1.4425956 -0.14444445 0.10110816 -0.18422303
000080 fb 59 4a 3e 77 a3 d5 3e 49 ae 83 3e d0 7f 40 3f
       0.19760887 0.41726276 0.25718907 0.75195026
000090 8c 48 99 3e 63 5b f9 bd ae b7 c6 be 1d 51 83 bf
       0.2993816 -0.12175634 -0.3881201 -1.0259129
0000a0 50 1d b7 3f 4d f8 5d be f3 d1 a0 3e 47 2e ae 3f
       1.430582 -0.2167675 0.3141018 1.3607873
0000b0 7d 6c 63 3e 71 f0 e4 be 39 5d 88 3d a1 82 cb 3d
       0.22209354 -0.44714692 0.06658406 0.09937025
0000c0 b9 70 55 be 3d 83 9a 3d a5 9a 1d be 24 61 ee 3d
       -0.20843782 0.07544563 -0.15391023 0.11639622
0000d0 2d 39 d1 3e ff 8a 76 3f 78 f2 18 bd e8 ba d6 3e
       0.40863934 0.9630584 -0.03734061 0.41939473
0000e0 49 01 72 3f 5c a2 85 bf 41 1a 04 3f a7 00 c0 bd
       0.9453321 -1.0440173 0.5160256 -0.093751244
0000f0 b5 c9 2c 3f 7b 0e ae 3f 9a 13 14 3d 18 06 db bd
       0.6749528 1.3598169 0.036151506 -0.10694522
000100 a8 57 9e 3e f7 96 52 3e 5a 92 8d 3e f8 95 f2 3d
       0.3092625 0.20565401 0.2765072 0.118450105
000110 8f 72 9d 3f d4 67 2a 3f eb 19 b7 3f a8 de df be
       1.2300586 0.6656468 1.4304785 -0.4372456
000120 5e bc a3 be 3d 56 3d bf b8 30 cd 3f 62 2c 88 bf
       -0.3197965 -0.73959714 1.6030493 -1.0638545
000130 bf 92 83 3e 71 69 81 3d c0 09 60 3f 94 d4 5e 3f
       0.25697896 0.063189395 0.8751488 0.8704312
000140 d2 64 58 bd fa b0 71 3e c8 c4 cc 3f fe 39 30 bd
       -0.052830525 0.23602667 1.5997553 -0.043024056
000150 cd 65 9d 3f 71 22 53 3e 1d bf 23 bf 46 01 7d 3e
       1.2296692 0.20618607 -0.6396349 0.24707517
000160 ca 11 30 3f 36 a3 15 bc b4 26 08 bf 45 47 2b 3e
       0.68777144 -0.009133151 -0.53184056 0.16726406
000170 3b be 1b be 6f 80 b9 bd 51 e5 e7 3e fb e7 9f 3f
       -0.15209286 -0.090577 0.45292142 1.249267
000180 0b 80 db bd 3e cf a6 3f ce 67 a3 3f 1c dd 30 3d
       -0.10717782 1.3031995 1.2766054 0.043179616
000190 98 9b 2c 3e 59 70 bf 3d 26 a8 df 3c 8f ce f2 bd
       0.1685623 0.093476005 0.02730186 -0.11855804
0001a0 d6 6d f2 bd 45 d3 e7 be ef e6 79 be 3d 4c 7c be
       -0.11837356 -0.45278373 -0.244045 -0.24638458
0001b0 6e 1b 36 bd 5a 85 97 3e 7d a5 be 3e 02 0c 7b 3f
       -0.044459753 0.29593927 0.37235633 0.980652
0001c0 d6 a4 6b 3f 20 9a 00 3e 49 b9 e9 3e 6a 01 cc 3f
       0.92048395 0.12558794 0.45649174 1.5937932
0001d0 94 90 33 bf a0 db d0 3f 2d 53 ab bd 04 4b c0 b9
       -0.70142484 1.6317024 -0.08365474 -0.00036676985
0001e0 69 b7 8e be 60 9a 0a 3f 02 52 50 3f 03 61 34 3f
       -0.27874306 0.5414181 0.81375134 0.7046053
0001f0 a1 53 f2 3e bf 78 50 3f 25 c9 09 bf fb 36 dd bd
       0.4732943 0.81434244 -0.5382255 -0.10801502
000200 b0 82 89 3e c4 8b e6 3e cf 72 46 bf 66 6e 65 be
       0.2685752 0.45028508 -0.77518934 -0.22405395
000210 52 8c ff 3e 34 ea a7 3e f0 03 4c 3f 57 96 58 3f
       0.49911743 0.3279587 0.7969351 0.846044
000220 c1 36 d2 3e a6 46 01 3f 7c 0a 22 3e ac 15 dd 3e
       0.410574 0.50498426 0.15824312 0.43180597
000230 00 88 1a 3e ee 3c 60 3f 0f a3 ca bd 60 5b 31 bc
       0.15090942 0.8759297 -0.09894382 -0.010825008
000240 a3 29 8a 3e 30 9c 46 bf 15 a6 46 bf 19 e7 06 bf
       0.2698489 -0.77582073 -0.7759717 -0.5269638
000250 0a 01 42 bc 79 1a 46 bf 6e 29 88 3c 2c e6 ac 3e
       -0.011841068 -0.77384144 0.016621318 0.33769357
000260 af 89 46 bf 3e 92 21 3f d8 c5 55 be 58 be 84 3e
       -0.7755384 0.6311377 -0.20876253 0.2592647
000270 fd 76 a1 bd 7b c6 9b bf b1 20 46 bf 2d 4d b9 3e
       -0.07884023 -1.2169946 -0.77393633 0.36191693
000280 0b 95 10 3f a8 9e 55 3e e8 0a 36 bf 61 87 46 bf
       0.5647742 0.20861304 -0.7111039 -0.7755032
000290 bd 29 af 3e 49 80 ce 3e 6a 8e 8a 3e 55 3e 48 bf
       0.3421153 0.4033225 0.27061778 -0.7822011
0002a0 89 ef 2b bf b4 84 16 3f fe ec 48 bc b7 8a bd 3c
       -0.67162377 0.5879624 -0.012263535 0.023137433
0002b0 e9 48 d8 3e 8f 72 46 bf ab 42 97 3f 58 2f 95 3f
       0.42243126 -0.7751855 1.181722 1.1655073
0002c0 e8 f2 71 be f3 0c 91 3f b4 a5 c0 3f e7 0a 97 3f
       -0.23627818 1.1332077 1.5050569 1.1800202
0002d0 3c da b5 bc 8d e9 04 3f 34 ea 7b 3e 55 8c ad bf
       -0.022198789 0.5191887 0.2460106 -1.3558451
0002e0 4a 3f 26 3f 21 06 19 3f f0 2c cb 3e d7 a1 46 bf
       0.6494032 0.59774977 0.39682722 -0.775907
0002f0 7e 24 af 3d d9 ef fc 3c 7c d8 2e bf da 7c ac 3e
       0.08551882 0.030876087 -0.6829908 0.33689004
000300 28 3c a5 3e 46 cb e9 3e 8d d0 92 3f b1 a2 e3 bd
       0.32272458 0.45662898 1.1469895 -0.11115015
000310 01 17 04 3f 98 44 4b bf 31 22 91 3e d3 a3 e7 be
       0.515976 -0.7940154 0.28346398 -0.45242175
000320 26 ce c6 3c 64 96 46 bf f2 9e 9c bf b2 a5 46 bf
       0.024268221 -0.7757323 -1.2236006 -0.7759658
000330 ef 28 aa 3e a3 27 68 3d a1 de 46 bf e9 d8 46 bf
       0.33234355 0.056678426 -0.77683455 -0.7767473
000340 91 4c 54 3e a3 d3 da 3c 22 8f ba 3e 21 23 81 3f
       0.20732333 0.026712244 0.36437327 1.0088845
000350 43 32 01 3f 65 bc d6 3f 44 4c a1 bf cc e2 54 bf
       0.5046732 1.6776243 -1.26014 -0.83158565
000360 9c 7d 0a 3e dd 60 3f 3e 83 1f e9 be 8a 9d 5d 3e
       0.13524479 0.18689294 -0.45531854 0.21642128
000370 fc aa 46 bf 02 5f 46 bf c8 e8 01 3e 66 5b d2 3f
       -0.7760465 -0.7748872 0.12686455 1.6434143
000380 ea 01 9f be 9d 06 09 3f 6a e1 02 3f 01 25 20 bf
       -0.31056148 0.53525716 0.51125205 -0.62556463
000390 d8 40 e1 3e 3c 7e 47 bd ba c4 19 3f 4e 8c 46 bf
       0.43994784 -0.04870437 0.60065806 -0.7755784
0003a0 cd 66 46 bf 7e 71 84 bf 86 f6 88 3c ec 05 27 3f
       -0.7750061 -1.0347135 0.016719114 0.6524341
0003b0 f6 2f 11 3f 22 cb f9 bd 2d ef c1 3e fe 4b e2 bc
       0.5671381 -0.12196948 0.3787779 -0.027624127
0003c0 2a 3d 95 3f 2e 27 a5 3b d8 76 ad 3e f3 e7 e6 3e
       1.1659291 0.005040071 0.33879733 0.45098838
0003d0 31 ee c7 3e 19 f8 e6 3e c5 a3 46 bf e9 65 0a 3f
       0.39048913 0.45111158 -0.7759364 0.5406175
0003e0 82 c7 14 be 8d 08 d0 3e 16 fd 24 3f 16 c1 12 3f
       -0.14529231 0.40631524 0.6444868 0.57325876
0003f0 5d e7 61 3e 5c bc 46 bf 4d 88 0e 3f f7 e5 b0 3e
       0.22060914 -0.77631164 0.5567673 0.3455045

l1.bias f4 [8]
000000 b3 7f 7f 3f ef 7a 45 3f 3b 14 16 3f 3f 2c 50 3f
       0.9980423 0.77140707 0.5862462 0.81317514
000010 0c ad a4 3f ac 51 19 3f aa 87 4a 3f 67 f3 90 3f
       1.286531 0.59890246 0.79113257 1.132428

l2.weight f4 [8, 8]
000000 ed f3 05 3e fb a0 f0 bf 45 27 0d 40 32 3b 97 bf
       0.13081332 -1.8799127 2.2055218 -1.181494
000010 da 1f dd 3f f9 e2 10 40 5b 1b 92 3f d0 f3 7f 3f
       1.7275345 2.2638533 1.1414598 0.99981403
000020 33 83 93 3f 5a 73 48 40 05 f7 e3 bf ec f3 d5 3d
       1.1524414 3.1320405 -1.7809759 0.10446915
000030 67 3d 39 3f 3a a3 1d bc b5 ce ac 3f 0a e3 c9 be
       0.7235932 -0.009621436 1.3500582 -0.3943103
000040 ce f0 21 3f f2 00 ff be b3 54 f4 be e1 bf f0 3e
       0.63258064 -0.4980541 -0.4772087 0.47021392
000050 08 59 9f be 88 99 e6 bd 9b 38 0d 40 2e 1c 53 40
       -0.31122613 -0.112597525 2.20658 3.298595
000060 01 96 c4 3f 6e c6 c7 3f 93 26 81 be 62 9c f0 3e
       1.5358278 1.5607431 -0.25224742 0.4699431
000070 f7 2f 4c bf d8 1e 1b bd 5e 68 fd 3f 9b 35 77 3f
       -0.7976069 -0.03787121 1.9797475 0.9656617
000080 db 5d 97 bf c0 d8 00 40 65 4e 7b 3f 90 97 86 bf
       -1.1825517 2.0132294 0.98166496 -1.0515003
000090 cc 14 fe 3f e6 7c 1a 40 fe 2d b7 3e b8 36 4d 3f
       1.9850097 2.4138732 0.35777277 0.8016162
0000a0 cc e3 08 40 74 8d cb bf e7 ca 30 3f 29 32 b8 3f
       2.1389036 -1.5902543 0.69059604 1.4390308
0000b0 b5 09 04 40 80 a3 89 bf 23 e0 3b bf ba 79 da be
       2.0630925 -1.0753021 -0.7338888 -0.42670995
0000c0 c6 9c 4b bd ca 3b 42 3f 7e 70 9d 3d 61 5c 86 bf
       -0.049710058 0.7587248 0.07687472 -1.0496942
0000d0 62 ec 22 bf da b1 b6 bc 89 ae 28 3f f7 5d 95 3d
       -0.6364194 -0.022301603 0.6589132 0.07293313
0000e0 1f 4a 83 3d e5 27 46 bf c0 4a b0 bf dd b5 eb 3f
       0.06410622 -0.77404624 -1.3772812 1.8414875
0000f0 79 17 27 3d 05 b7 50 bf ea b6 86 be 33 d5 f2 3f
       0.04079387 -0.81529266 -0.26311427 1.8971313

l2.bias f4 [8]
000000 11 27 b1 3d 34 40 87 3d 9c cb 53 be c3 cc 74 bf
       0.086500295 0.06604043 -0.2068314 -0.9562494
000010 32 ba da 3e 10 98 b0 3f 09 72 e8 3d c1 05 0d 3f
       0.4272018 1.3796406 0.113498755 0.55086905

l3.weight f4 [27, 8]
000000 82 c2 82 3d b5 cc c9 be 8b 2f 20 be 6b aa a7 bf
       0.06384756 -0.39413992 -0.15643136 -1.3098882
000010 cb b3 51 be bb 2f 17 be 3e 8f 3f bf e4 9e 2a bf
       -0.20478742 -0.14764301 -0.74827945 -0.666487
000020 d3 11 32 c0 5c 28 67 3e bf 09 65 3e 72 c6 dc bd
       -2.782338 0.2257399 0.22366999 -0.10780038
000030 3c a4 bd 3e a2 d7 b3 bf 27 67 75 bf 2f 67 5d be
       0.37039363 -1.4050181 -0.95860523 -0.21621393
000040 b1 8a 9f c0 af e0 63 3c d6 bb 02 bf 92 92 90 be
       -4.98568 0.013908549 -0.51067865 -0.28236824
000050 94 7c 12 bf c7 e8 5d 3f ee 60 e9 bd 2a aa bb 3e
       -0.5722134 0.86683315 -0.11395441 0.36653262
000060 7f a7 b8 bf 36 b9 db 3e 35 87 3e c0 09 1f 5f c0
       -1.4426116 0.42914742 -2.9770024 -3.4862692
000070 bc a3 c3 3e e7 58 57 3f f0 de a0 bf 1d c1 63 bf
       0.38210857 0.8412003 -1.2568035 -0.8896654
000080 ec 19 03 3e 06 49 76 bf c2 30 a0 3e 37 18 71 3e
       0.12802857 -0.96205175 0.312872 0.23544393
000090 c0 22 1c bf 82 36 bc bd a3 92 e3 bf bb f1 88 c0
       -0.60990524 -0.09190084 -1.7779125 -4.279508
0000a0 6b 5d 2b bf 16 76 03 bf f5 14 2d 3f 96 a6 a4 be
       -0.6693942 -0.5135206 0.676101 -0.32158345
0000b0 6a f6 91 bf 62 df d0 be cf 49 8d bf ca 53 bb 3e
       -1.1403325 -0.40795428 -1.103815 0.36587363
0000c0 d3 ee 30 3f b4 06 9e bf 31 51 19 c0 0f 76 03 c0
       0.69114417 -1.2345796 -2.3955805 -2.0540807
0000d0 27 9a 9a 3f 49 dd da bf d0 58 73 bf b7 41 11 c0
       1.2078294 -1.7098781 -0.9505739 -2.269636
0000e0 fb 15 c0 3e 5a 2b 7c 3e d1 11 99 be cf d8 f2 be
       0.3751677 0.24625912 -0.29896405 -0.47431037
0000f0 35 d7 f6 3d 18 97 ac bf 7c 3e 25 c0 b2 25 70 c0
       0.12052766 -1.348361 -2.5819387 -3.7523007
000100 16 24 54 3f 1a 74 81 c0 25 21 56 be 82 63 52 c0
       0.8286756 -4.0454226 -0.20911081 -3.2873235
000110 ba dd e8 3e cd d0 b4 be 93 d8 93 bf e8 ad 8d c0
       0.45481664 -0.35315552 -1.1550468 -4.427479
000120 86 aa fe bd b7 4d 6b be 99 61 93 be f0 db 90 bc
       -0.124348685 -0.22978865 -0.287854 -0.017683
000130 d0 a0 c3 bf d5 51 36 3f 66 ca 92 bf 7a 45 a7 bf
       -1.5283451 0.71218616 -1.1468017 -1.3068078
000140 f7 59 00 bf f8 71 5d be 87 16 01 3f e9 3c fd 3e
       -0.50137275 -0.21625507 0.50425 0.49460533
000150 ed 78 34 bf f8 06 32 c0 1c 69 92 bf c1 ef bf bd
       -0.7049702 -2.7816753 -1.1438327 -0.09371901
000160 f7 19 0e c0 28 5c c1 bf fb 7c 7b 3f c7 e8 cf bd
       -2.2203348 -1.5106249 0.9823758 -0.10151821
000170 20 57 77 c0 f9 54 0e bf bf 24 96 be d7 ff ab 3f
       -3.8646927 -0.5559841 -0.2932491 1.3437451
000180 9d 34 17 bf 95 6c 09 3f 20 71 c3 3e a1 1b 46 3e
       -0.59064656 0.5368131 0.38172245 0.19346477
000190 1c 67 fb bd a6 e9 4b c0 12 45 88 3f b8 56 55 c0
       -0.12275526 -3.1861358 1.0646079 -3.333418
0001a0 b2 36 2c 3f 31 7d 60 c0 b5 7d cf 3e 79 75 21 bd
       0.6727096 -3.507641 0.40525594 -0.03941867
0001b0 d9 6f 9b be 8b b2 78 bf 88 47 49 bf 24 7f 9a bf
       -0.3035877 -0.97147435 -0.78624773 -1.207005
0001c0 47 2a a5 be e2 bd 63 c0 83 48 24 bf a7 98 81 c0
       -0.32258818 -3.5584645 -0.64173144 -4.0498843
0001d0 fb ed 31 be 97 79 5a 3f 2b 05 a0 3e 17 59 74 3f
       -0.17375939 0.8534178 0.31253943 0.9544844
0001e0 99 29 9c bf 63 4a 9f be 49 0a d5 be a1 9a ab bd
       -1.2200195 -0.3111144 -0.4160941 -0.083791025
0001f0 85 bb 16 c0 f2 c0 81 3f 91 15 64 be 5e cd 62 3e
       -2.3551953 1.0137007 -0.22273852 0.22148654
000200 76 1d 0e 3f 96 d3 2b c0 14 27 d1 bd fb a1 04 c0
       0.55513704 -2.6847892 -0.10212532 -2.0723865
000210 b0 3c 12 bf 23 0c 8f 3f 27 4c 78 bf 5d 3c 54 c0
       -0.5712385 1.1175579 -0.969912 -3.3161843
000220 43 98 4d 3e 51 76 2c bf 93 b2 aa bf 09 61 b4 be
       0.20077614 -0.67368037 -1.3335747 -0.35230282
000230 d9 a0 17 3d 33 71 c7 3e 4d de 49 be 53 6d 9e c0
       0.03701863 0.38953552 -0.19713707 -4.9508452
000240 e1 f4 d7 be 39 e4 b7 bd c1 75 90 3e f3 87 04 3f
       -0.42179015 -0.08979077 0.2821484 0.5176994
000250 51 eb 5e bf e9 4d 02 bf 84 0b 12 be 0b d7 d4 bf
       -0.87077814 -0.5090013 -0.14262205 -1.6628126
000260 2f 83 e5 3e 4b ae e1 bc d9 e9 28 c0 63 1a d1 3e
       0.44826648 -0.02754893 -2.639273 0.40840444
000270 73 db e4 3e c4 0c 6c c0 15 66 94 3f 4b 0a 1e c0
       0.44698676 -3.6882792 1.1593653 -2.4693782
000280 61 c4 90 bf 45 fb 27 3f 75 3e 23 c0 e2 43 e0 bc
       -1.130993 0.6561778 -2.550687 -0.027376119
000290 79 70 0e 3f 5d fe 07 bf bb 80 df 3e 30 44 5a c0
       0.5564037 -0.531225 0.436529 -3.4104118
0002a0 77 d2 6b 3f a9 87 84 c0 9d ed 66 c0 e6 57 5a c0
       0.9211802 -4.14156 -3.6082528 -3.411615
0002b0 ba f4 d7 3e c8 98 4b 3f bc ff 99 be 4c a0 59 c0
       0.421789 0.7953 -0.30077922 -3.4004087
0002c0 22 06 b6 3e 73 cc 94 be d2 d9 62 c0 08 eb 43 c0
       0.35551554 -0.29062232 -3.5445447 -3.0612202
0002d0 46 98 90 3e 97 a9 24 3f 4e 2c 58 bf 48 7a 90 c0
       0.28241175 0.64321274 -0.84442604 -4.514927
0002e0 33 ac 09 c0 12 97 64 3f dd fb 14 3f 5e 2c 48 3f
       -2.1511352 0.89293015 0.5819681 0.781927
0002f0 35 7c c5 bf e5 09 cc bf 24 20 76 3f e8 4e c6 bf
       -1.542853 -1.594052 0.9614279 -1.549283
000300 83 4a 23 c0 c9 0a 37 3f 1e 21 80 3e bb 24 87 3e
       -2.5514228 0.7150083 0.25025266 0.2639521
000310 26 a0 84 bf 41 9d 68 3e 57 2b 55 bf 12 c7 59 c0
       -1.0361373 0.22716238 -0.83269256 -3.4027753
000320 82 a4 4a c0 f4 30 ed 3e dd 63 3a 3f b7 e2 30 3f
       -3.1662908 0.4632641 0.7280863 0.6909594
000330 45 e9 1e c0 ad 24 0e bf 41 cf d6 bf 71 46 39 bd
       -2.4829876 -0.5552471 -1.6781999 -0.045233194
000340 27 72 dc 3e 81 7e 92 bf a8 34 5f 3e e2 50 f6 bd
       0.4305584 -1.1444856 0.2179743 -0.12027146
000350 ef 33 85 3e a3 04 6a c0 0b c0 6c 3f f6 b8 69 c0
       0.26016185 -3.656533 0.92480534 -3.6519141

l3.bias f4 [27]
000000 7e dd f1 be ee 47 94 bd b9 c8 3c 3f 80 08 50 3f
       -0.47239298 -0.07240282 0.7374378 0.8126297
000010 71 33 4a bf 44 f2 33 bf 35 46 b4 3e 57 62 8c be
       -0.78984743 -0.70291543 0.35209814 -0.27418777
000020 9a ea 08 be ab 1a 5e bd 8b f1 02 bf 00 37 38 3c
       -0.13370743 -0.05422465 -0.51149815 0.011243582
000030 84 a2 e0 3e 98 59 51 be 9a 8d 06 be 63 f9 ca 3e
       0.4387399 -0.20444334 -0.13139954 0.39643392
000040 5b d4 e3 3e b9 b7 85 bf 61 d6 43 bf 3e 92 31 3f
       0.44497952 -1.0446693 -0.7649899 0.6936377
000050 bd 38 fe 3e 6a bf f2 3c 43 59 82 be 1e 5c a9 be
       0.49652663 0.029632289 -0.25458726 -0.33078092
000060 6d c4 8c be 30 66 de 3d b0 06 bb be
       -0.2749361 0.108593345 -0.3652854
