data.pth (torch, 7978 bytes, 6 tensors)

l1.weight f4 [8, 100]
00000000: 9a0d 293e 7e89 963e a8cf 56bf c25e 6b3e
00000010: 7446 c43e 6dbe 2b3f 47ab e8be 2019 fe3e
00000020: 52df de3e de42 843e 6cab 1e3e 4c06 d63f
00000030: b36d 2cbf a9da 28bf 8c88 69be 29d4 3dbe
00000040: 8109 553f 4d98 37bf 0f29 10bf cab7 5a3e
00000050: c8d8 373f 902f acbe 0664 513f 4258 d1be
00000060: 7b0c 3cbe ca3d ff3e 6fd3 c83c a8d3 c13e
00000070: 7b65 863f 11d0 483f fa09 e63e b2ec 2a3f
00000080: 313f 263e 14ac d7be 1d9d 1bbf 6c70 21bf
00000090: da62 2dbf 05ef 33be b36d 27bf 27c6 0ebf
000000a0: 0894 28bf d0ee dd3e 0996 e6be 0b69 0f3f
000000b0: a493 513f 0157 a23f 458f 39bf f2bf ec3e
000000c0: 0f12 19be abf4 dc3e 456c f4bc 747f 4f3f
000000d0: e7b1 8e3e 5de0 413f 79df f03f 9b1d 12bf
000000e0: 4477 c03f 2c98 ba3e 3ead b03c a759 c03b
000000f0: 335f 1cbd 103d 0dbe 8ab2 623f 0d94 0bbf
00000100: 0de7 783e 2b16 c83b 8571 37be aaa8 37bf
00000110: 44a1 263f 580e 1b3f 2726 a43e 3a14 db3e
00000120: 96f2 b03f f061 ad3e 0b49 893e d52b 763e
00000130: c739 95bd 26d4 23bd 5d6e e03e 8070 1abe
00000140: c3ff 06bf e720 de3e 8ec9 b0be b980 9c3e
00000150: 83c1 8fbe 6409 933e bbe0 983e f704 f53e
00000160: b265 343e fc14 c83e 8473 5f3e e71c af3e
00000170: a078 473f 6091 043f 86e8 e83f f964 463f
00000180: 01b9 14be 9e54 0b3e 7773 09bf 99ea 29be
00000190: 8917 8a3d 2960 213e ae46 5f3f 964d f13e
000001a0: e47b e63d 8ef6 36be b0df 873d 2901 a9bd
000001b0: 5be2 883e 783f d03f 4482 363f cc70 df3f
000001c0: c0dc 213f 9bc1 1b3f a41a debd 6003 d9bd
000001d0: 3606 543e 109f 90bf 8e88 87be e736 3c3e
000001e0: 5b94 883f 1d8d 0c3f 7505 cc3e cd43 223f
000001f0: 6722 733e 3d15 ccbd 9be9 33bf e02c 9a3e
00000200: 38bf 353f 9918 48bf e2b9 b33e c23a 833f
00000210: b05c 2cbe 2bb5 073f 79cd 133f 20d6 4c3f
00000220: 601e 823f 1e91 623d 89a1 7f3f 0bd8 4e3f
00000230: 1ced 5c3f 85aa 083f 883d f73e a9cf 2c3e
00000240: 0490 823e 8e3f 863e 05e7 49bf 8ea2 833f
00000250: 7d91 723e 800f c33e 59ee a53e 3a0d 6abf
00000260: 5489 aa3e 683b 813e be1b 4cbe 0195 b2be
00000270: abed ff3e 4ae6 f0ba 6cf5 1dbf 6ac9 22bf
00000280: f1dd 903e 7d1d 87bc b3ad ffbe 8da7 a63f
00000290: e0ef b33e f9f4 a03f 8679 49bd 8690 d4be
000002a0: ee2b b7be 654a f03e fda3 c03d 1c2d 0abd
000002b0: 9353 4abf 50ae 3a3e c700 a03e a281 8d3e
000002c0: 8f60 483e 6681 043f cf33 11be 3343 643f
000002d0: 258c 2b3f 2389 80bd e2b7 bd3e 7430 cfbd
000002e0: dd3e 4bbd 6acd a03d 6800 7f3e 1dad 3cbd
000002f0: 053f 383e 91eb 80be 6adb 7e3e 2ab1 58bd
00000300: b226 20bf 3b3e 26be 2715 8f3d ab6d adbd
00000310: 6cd8 733f e156 22bf 2893 f13e 20a0 d33d
00000320: 88b9 253f e6d2 193f f96b 403f 50cd 103f
00000330: ec0d 1f3e 0432 27bd 80d0 1b3f a0b1 34be
00000340: 7dbb 973e 08c6 4d3f 60cc f4bc 716e 603f
00000350: b2c4 2dbf 8673 2ebf fb3f e73c 69c1 86be
00000360: 2b33 58bf d052 9c3f a2d5 123f b9b7 823c
00000370: d351 0c3e 9b24 143f c174 9cbf 2101 83bd
00000380: 0713 cb3e dbf7 dc3e 7bce 623e b9d6 683d
00000390: 40ed 4dbf 948a fa3e 03bc 523e 0830 e73d
000003a0: e4ea 74be 22ef ed3e 295e 1abf 25e6 4e3f
000003b0: a3a7 333f 1865 54bc 4e47 453f 302e 273f
000003c0: 76cc 183f 037c 013e 2516 1a3f ea0c e63e
000003d0: c18f a7bf b225 243e b6d0 943f 8276 80bd
000003e0: 3248 a4be 436f 9d3e ede4 173f 529b 6fbf
000003f0: 0e2a 25bf 6598 57bf 2f6c c6be d23f 073f
0.16509095 0.29401773 -0.8391061 0.22985366 0.38335 0.6708744 -0.45443174 0.49628544
0.43529755 0.25832266 0.1549508 1.6720672 -0.6735489 -0.6595865 -0.22805995 -0.18537964
0.83217627 -0.7171677 -0.5631265 0.21359172 0.71815157 -0.33630037 0.8179325 -0.40887648
-0.18364136 0.4985183 0.024514882 0.37856793 1.0499719 0.78442484 0.44929487 0.6676742
0.16235043 -0.42123473 -0.6078661 -0.6306217 -0.6772896 -0.17571647 -0.6540176 -0.55771106
-0.6585088 0.43346262 -0.45036343 0.5601966 0.81865907 1.2682801 -0.72484237 0.46240193
-0.14948295 0.43155417 -0.029836783 0.81053853 0.27870104 0.75732976 1.8818198 -0.57076424
1.5036397 0.36444223 0.021566983 0.0058700624 -0.038176727 -0.13792825 0.8855368 -0.5452278
0.24306889 0.0061061583 -0.17914398 -0.71741736 0.6508982 0.6056876 0.32060358 0.4278887
1.3824031 0.33863783 0.2681354 0.24040158 -0.07286411 -0.039997242 0.438342 -0.15081978
-0.5273401 0.43384477 -0.34528774 0.30566958 -0.28077325 0.28718102 0.29858956 0.4785535
0.17616919 0.3907851 0.2182141 0.34201738 0.77918434 0.51784325 1.819596 0.7749782
-0.14523698 0.13606498 -0.5369181 -0.16593398 0.0674277 0.15759338 0.87217224 0.47129506
0.11254099 -0.1786749 0.06634462 -0.082521744 0.26735196 1.6269369 0.7129252 1.7456298
0.6322746 0.60842294 -0.10844925 -0.10596347 0.20705494 -1.1298542 -0.2647137 0.18380319
1.0670274 0.5490282 0.39847913 0.63384706 0.23743592 -0.099649884 -0.7027833 0.30112362
0.709949 -0.78162533 0.35102755 1.0252306 -0.16832232 0.53010815 0.577354 0.8001423
1.016552 0.055314176 0.9985586 0.80798405 0.862993 0.5338519 0.48289132 0.16876091
0.255005 0.26220363 -0.7886813 1.0283983 0.23688312 0.38097763 0.32408407 -0.9142643
0.33307898 0.25240636 -0.19932458 -0.34879306 0.49986014 -0.0018379178 -0.6170261 -0.63588583
0.28294328 -0.016493553 -0.4993721 1.3019882 0.35143948 1.257476 -0.04918816 -0.41516513
-0.35775703 0.4693176 0.09406278 -0.033734426 -0.79033774 0.18230557 0.31250593 0.27637964
0.19568084 0.51759946 -0.1417992 0.8916504 0.6701072 -0.06276157 0.37054354 -0.101166636
-0.049620498 0.078516796 0.24902499 -0.04606353 0.1799279 -0.25179723 0.24888387 -0.05290333
-0.62559044 -0.16234677 0.06986456 -0.08468183 0.9525211 -0.63413817 0.47182584 0.10333276
0.64736223 0.6008743 0.75164753 0.5656328 0.15532655 -0.040819183 0.6086502 -0.17645884
0.2963523 0.80380297 -0.02988261 0.8766852 -0.6787826 -0.68145025 0.02822875 -0.26319435
-0.84453076 1.2212772 0.5735723 0.015956746 0.13703088 0.57868356 -1.222313 -0.063967
0.39662954 0.4315785 0.22149079 0.0568454 -0.8044014 0.48933852 0.20579533 0.11288458
-0.23917729 0.46471506 -0.60299927 0.8081992 0.7017767 -0.012963556 0.7706193 0.6530485
0.5968698 0.12644963 0.6019004 0.44931728 -1.3090745 0.16030005 1.1626194 -0.062726036
-0.3208633 0.30748948 0.5933369 -0.93596375 -0.64517295 -0.8421691 -0.38754413 0.5283176

l1.bias f4 [8]
00000000: 058b 3f3f d01f 483f 7c73 543f 36f4 0b3f
00000010: f7d0 5a3f 868e 683f ecac 7a3f 880f 623f
0.748215 0.7817354 0.82988715 0.5466951 0.85475105 0.90842474 0.9792011 0.8830495

l2.weight f4 [8, 8]
00000000: b6b3 b93f a515 99be 6636 ccbf 8c86 ce3e
00000010: c425 8abf 13b8 9c3f 68e1 ae3f 925e 26be
00000020: 092e 233e cc82 073e 8bbb e6bd 211a 81be
00000030: 24bf 85bd f30d c1bd 2ee2 2abe 2ddd 24be
00000040: 40d8 7e3f 830b 733b 5d32 f4bf 4efe 5abf
00000050: 24c1 9b3f a28b 993f 18ed 873e 201b 8d3f
00000060: b15c 943f 0f35 9b3f 94ff 393f 515e c43f
00000070: e8d8 b1bf 0964 6abf 532b 223f 2e86 acbe
00000080: 74f9 7cbc f230 6a3e 29c7 173f a010 413f
00000090: 8fa7 24bf 3095 463f a037 c33f 904f e7bf
000000a0: 86f3 703f 8374 08c0 aae4 183f 5e15 b63f
000000b0: 67a8 753c 08ec 483f 989d 763d 2267 723f
000000c0: f3e1 293e 6bad c53f b820 563f afe5 8a3f
000000d0: d0e6 74bf 2c8f 88be bd77 713f c0c7 2540
000000e0: 7d86 9c3e 6cf8 2fbf b08d 2a40 7ada 2c3f
000000f0: dc82 2440 1a3d bb3f 7b93 3f3f e37b 89bf
1.4507968 -0.29899326 -1.5954101 0.40337026 -1.0792775 1.2243675 1.3662539 -0.16247013
0.1593553 0.13233489 -0.1126624 -0.25215247 -0.06530598 -0.09426489 -0.16687843 -0.16099997
0.9954872 0.003708572 -1.907787 -0.8554429 1.2168317 1.1995738 0.26548076 1.1023903
1.1590787 1.2125567 0.72655606 1.5341283 -1.389432 -0.9155889 0.6334736 -0.3369612
-0.015440334 0.22870234 0.5928827 0.7541599 -0.64318174 0.7757139 1.525135 -1.8071156
0.9412159 -2.1321113 0.59723914 1.4225271 0.0149937635 0.78485155 0.060208887 0.9468862
0.16590099 1.5443548 0.83643675 1.0851344 -0.9566469 -0.2667173 0.9432333 2.5903168
0.30571356 -0.68738437 2.664898 0.6752087 2.570487 1.4628022 0.7483441 -1.0740932

l2.bias f4 [8]
00000000: 6231 a03e 06d4 01be 3684 053f 6e18 a1be
00000010: 94c4 303f b4de 0abe 83c2 213f c707 4f3e
0.31287676 -0.12678537 0.5215486 -0.3146395 0.69049954 -0.13561517 0.63187426 0.2021781

l3.weight f4 [18, 8]
00000000: fc27 943e d10e bbbe 69de 67bf df98 cd3e
00000010: c02c 3d3f c9ab 4ec0 820f 9cbe d0d8 2ebf
00000020: 1fb0 7dbe fc39 80be 9418 3cbf 2c1e 233e
00000030: 1052 3fc0 ea24 4bbf ae1a 4f3e 8e3d 1c3d
00000040: abe9 eabe e768 883e b5f8 1cc0 2337 17c0
00000050: a24b c83e 416d 0f3f 1f24 d6bf d125 593f
00000060: f215 4c3e 5a2b 68be ef52 0abf d098 6abf
00000070: d249 ccbe 0c10 2b3f 8f9e 24bf 4475 54bd
00000080: 4cc7 6d3e ef16 843e 67b1 8cbf 052a 533f
00000090: d068 35bf 4313 1dbf e3a0 b33e 4e38 e3bf
000000a0: 077c 23c0 31f0 293e d609 453f a100 41c0
000000b0: cf5f cebf 6c37 02c0 e98f ae3f 656d 0ac0
000000c0: 2a90 1ec0 67a8 4dbd c129 5bc0 141b 8dbe
000000d0: e665 e3be 1b80 20c0 418c 463f 286d 7d3e
000000e0: 2e97 1b3f 4c8f 8a3e fcd5 c23e b747 a0bf
000000f0: 3f8e 19c0 74b7 31be 9cb4 d33e ff26 febf
00000100: 677b 1b3f 8e0d cebc be63 dc3a 4e4c 40bd
00000110: 7250 ae3e 6186 3dbf 98c8 86be 2e92 5dbf
00000120: f06b 1fc0 cad8 1dbd 47bd 913e e4be 55c0
00000130: 7e9a 48c0 d548 023f 6353 05bf 70a2 0a3f
00000140: e36b 7a3e bbd5 f73c 0f82 57bf 24d3 833d
00000150: 4574 0dc0 074a 713f df75 49be 21a0 82bf
00000160: 9c14 f7bf 3cdd 4a3e 463a 813d 2298 13c0
00000170: 726d 2ebf feaa 4ec0 4a02 ef3e 4fab e23d
00000180: 3cf6 f1bf df5d 3c3e 4954 4bc0 3a28 683f
00000190: 29fa 33c0 622c dab8 91ee 6c3f cb13 bbbf
000001a0: 0766 0dc0 35b5 0a3e b761 fb3e 959a 8dbf
000001b0: 429f e33e 2c85 eabf cce3 32c0 6e46 563f
000001c0: a38f e9bf c44f 76bd 0521 3dc0 208c 1ebe
000001d0: 5e8b 1cc0 530e 063f 25a1 93be 6ebd 2b3f
000001e0: 056a 133f 045d 9dbe 55da 8e3f 9762 9ebf
000001f0: cc2d aebf 0759 9f3e c9bb d0bf 8431 0dbf
00000200: 1e09 7c3f 5621 903c 7436 593e 919f 6bc0
00000210: 767c 823f 03c2 21c0 3644 83bf b515 a13d
00000220: e578 da3d 81f3 1ebe e6f5 34c0 ae84 05bf
00000230: 9c48 553f 0a81 fa3e e09f 22bf 62a5 81be
0.28936756 -0.36534742 -0.90573746 0.40155694 0.7389641 -3.229235 -0.30480582 -0.6829958
-0.24774216 -0.2504424 -0.73475003 0.15929478 -2.9893837 -0.793532 0.20225021 0.03814464
-0.458814 0.26642534 -2.4526799 -2.3627403 0.39120203 0.56026083 -1.6729773 0.8482333
0.19930246 -0.22672787 -0.54032797 -0.91639423 -0.3990007 0.6682136 -0.6430444 -0.051869646
0.23220557 0.25798747 -1.0991639 0.8248599 -0.70863056 -0.61357516 0.35083684 -1.7751558
-2.554445 0.16595532 0.76968133 -3.0156634 -1.6122988 -2.0346327 1.3637668 -2.162927
-2.477549 -0.05020943 -3.4244235 -0.2755972 -0.4441368 -2.507819 0.7755776 0.24748671
0.60777557 0.27062452 0.38053882 -1.2521886 -2.399307 -0.17355138 0.41348732 -1.9855651
0.6073517 -0.025152948 0.0016814393 -0.04694777 0.3404575 -0.7403317 -0.26324916 -0.8655118
-2.490963 -0.038536824 0.2846472 -3.339776 -3.1344295 0.5089238 -0.52080363 0.5415411
0.24455218 0.030253282 -0.8418283 0.06436756 -2.2102215 0.9425358 -0.1967387 -1.0205117
-1.9303164 0.19810957 0.06309943 -2.3061604 -0.6813575 -3.2291865 0.46681434 0.11067831
-1.890327 0.18395184 -3.1770194 0.9068638 -2.8121436 -0.00010403317 0.92551523 -1.4615415
-2.2093523 0.13545687 0.49097988 -1.10628 0.44457442 -1.8321891 -2.7951536 0.8370122
-1.824696 -0.060134664 -2.9551404 -0.15483141 -2.4460063 0.5236561 -0.2883388 0.6708592
0.5758365 -0.30735028 1.116038 -1.2373837 -1.3607726 0.3112261 -1.6307307 -0.5515368
0.9845141 0.01759402 0.21212178 -3.6816142 1.0194232 -2.5274665 -1.0255191 0.078654684
0.1066759 -0.15522577 -2.8275084 -0.5215558 0.8331392 0.48926574 -0.635252 -0.2532149

l3.bias f4 [18]
00000000: 477a efbe 5e77 37be 99b9 34be 365b 01bf
00000010: c623 c73d e894 323f cbe4 263f 571a 77be
00000020: 9c43 713e 8496 f03e 291b 8dbf 4c30 4f3e
00000030: c405 06be ea8a 303f 2119 77bc 71b5 ffbd
00000040: 9c3a a63d d8ec 94be
-0.46772978 -0.17916629 -0.17648925 -0.505298 0.0972362 0.6975846 0.6519286 -0.24131142
0.23560947 0.46989834 -1.1023914 0.20233268 -0.13088137 0.68961966 -0.015081675 -0.12485779
0.081166476 -0.29086947
